[2024-04-08 08:00:23] (cross_validate.py 292): INFO CPU mode...
[2024-04-08 08:00:23] (cross_validate.py 139): INFO round_3
[2024-04-08 08:00:23] (cross_validate.py 147): INFO {'MODEL.DEPTH': 4, 'MODEL.DROPOUT': 0.0, 'MODEL.HID': 256, 'MODEL.R': 2, 'MODEL.SLICES': 4, 'TRAIN.OPTIMIZER.BASE_LR': 0.000664563658189323, 'TRAIN.OPTIMIZER.WEIGHT_DECAY': 1e-06}
[2024-04-08 08:00:23] (cross_validate.py 49): INFO Fold 0
[2024-04-08 08:00:23] (train.py 223): INFO HiGNN(
  (combinedfc1): Linear(in_features=512, out_features=256, bias=True)
  (lin_a): Linear(in_features=46, out_features=256, bias=True)
  (lin_b): Linear(in_features=10, out_features=256, bias=True)
  (lin_c): Linear(in_features=167, out_features=256, bias=True)
  (atom_convs): ModuleList(
    (0-3): 4 x NTNConv(256, 256, slices=4)
  )
  (lin_gate): Linear(in_features=768, out_features=256, bias=True)
  (feature_att): FeatureAttention(
    (mlp): Sequential(
      (0): Linear(in_features=256, out_features=128, bias=False)
      (1): ReLU(inplace=True)
      (2): Linear(in_features=128, out_features=256, bias=False)
    )
  )
  (dotproduct_att): DotProductAttention()
  (cross_att): GATConv(256, 256, heads=4)
  (out): Linear(in_features=512, out_features=24, bias=True)
)
[2024-04-08 08:00:23] (train.py 231): INFO number of params: 2313512
[2024-04-08 08:00:23] (train.py 265): INFO Start training
[2024-04-08 08:09:00] (cross_validate.py 292): INFO CPU mode...
[2024-04-08 08:09:00] (cross_validate.py 139): INFO round_3
[2024-04-08 08:09:00] (cross_validate.py 147): INFO {'MODEL.DEPTH': 4, 'MODEL.DROPOUT': 0.4, 'MODEL.HID': 256, 'MODEL.R': 2, 'MODEL.SLICES': 1, 'TRAIN.OPTIMIZER.BASE_LR': 0.005249790446583661, 'TRAIN.OPTIMIZER.WEIGHT_DECAY': 0.0001}
[2024-04-08 08:09:00] (cross_validate.py 49): INFO Fold 0
[2024-04-08 08:09:00] (train.py 223): INFO HiGNN(
  (combinedfc1): Linear(in_features=512, out_features=256, bias=True)
  (lin_a): Linear(in_features=46, out_features=256, bias=True)
  (lin_b): Linear(in_features=10, out_features=256, bias=True)
  (lin_c): Linear(in_features=167, out_features=256, bias=True)
  (atom_convs): ModuleList(
    (0-3): 4 x NTNConv(256, 256, slices=1)
  )
  (lin_gate): Linear(in_features=768, out_features=256, bias=True)
  (feature_att): FeatureAttention(
    (mlp): Sequential(
      (0): Linear(in_features=256, out_features=128, bias=False)
      (1): ReLU(inplace=True)
      (2): Linear(in_features=128, out_features=256, bias=False)
    )
  )
  (dotproduct_att): DotProductAttention()
  (cross_att): GATConv(256, 256, heads=4)
  (out): Linear(in_features=512, out_features=24, bias=True)
)
[2024-04-08 08:09:00] (train.py 231): INFO number of params: 1517852
[2024-04-08 08:09:00] (train.py 265): INFO Start training
[2024-04-08 08:14:12] (cross_validate.py 290): INFO GPU mode...
[2024-04-08 08:14:12] (cross_validate.py 139): INFO round_3
[2024-04-08 08:14:12] (cross_validate.py 147): INFO {'MODEL.DEPTH': 4, 'MODEL.DROPOUT': 0.4, 'MODEL.HID': 128, 'MODEL.R': 4, 'MODEL.SLICES': 2, 'TRAIN.OPTIMIZER.BASE_LR': 0.0021743380362564185, 'TRAIN.OPTIMIZER.WEIGHT_DECAY': 1e-06}
[2024-04-08 08:14:12] (cross_validate.py 49): INFO Fold 0
[2024-04-08 08:14:12] (train.py 223): INFO HiGNN(
  (combinedfc1): Linear(in_features=256, out_features=128, bias=True)
  (lin_a): Linear(in_features=46, out_features=128, bias=True)
  (lin_b): Linear(in_features=10, out_features=128, bias=True)
  (lin_c): Linear(in_features=167, out_features=128, bias=True)
  (atom_convs): ModuleList(
    (0-3): 4 x NTNConv(128, 128, slices=2)
  )
  (lin_gate): Linear(in_features=384, out_features=128, bias=True)
  (feature_att): FeatureAttention(
    (mlp): Sequential(
      (0): Linear(in_features=128, out_features=32, bias=False)
      (1): ReLU(inplace=True)
      (2): Linear(in_features=32, out_features=128, bias=False)
    )
  )
  (dotproduct_att): DotProductAttention()
  (cross_att): GATConv(128, 128, heads=4)
  (out): Linear(in_features=256, out_features=24, bias=True)
)
[2024-04-08 08:14:12] (train.py 231): INFO number of params: 457376
[2024-04-08 08:14:12] (train.py 265): INFO Start training
[2024-04-08 08:14:18] (train.py 293): INFO Epoch:0 tox21 trn_loss:7.937 trn_auc:0.617 lr:0.00217
[2024-04-08 08:14:18] (train.py 295): INFO Epoch:0 tox21 val_loss:3.950 val_auc:0.694 lr:0.00217
[2024-04-08 08:14:18] (train.py 297): INFO Epoch:0 tox21 test_loss:3.750 test_auc:0.727 lr:0.00217
…
[2024-04-08 08:23:19] (train.py 210): INFO Seed 2021 Dataset tox21 ==> The best epoch:76 test_loss:2.900 test_scores:0.870
[2024-04-08 08:23:19] (train.py 210): INFO Seed 2021 Dataset tox21 ==> The best epoch:64 test_loss:2.851 test_scores:0.869
[2024-04-08 08:23:19] (train.py 210): INFO Seed 2021 Dataset tox21 ==> The best epoch:73 test_loss:2.924 test_scores:0.868
[2024-04-08 08:23:20] (train.py 210): INFO Seed 2021 Dataset tox21 ==> The best epoch:74 test_loss:2.919 test_scores:0.867
[2024-04-08 08:23:20] (train.py 371): INFO Seed 2021 ==> test auc = 0.872
[2024-04-08 08:23:20] (cross_validate.py 49): INFO Fold 1
[2024-04-08 08:23:20] (train.py 223): INFO HiGNN(
  (combinedfc1): Linear(in_features=256, out_features=128, bias=True)
  (lin_a): Linear(in_features=46, out_features=128, bias=True)
  (lin_b): Linear(in_features=10, out_features=128, bias=True)
  (lin_c): Linear(in_features=167, out_features=128, bias=True)
  (atom_convs): ModuleList(
    (0-3): 4 x NTNConv(128, 128, slices=2)
  )
  (lin_gate): Linear(in_features=384, out_features=128, bias=True)
  (feature_att): FeatureAttention(
    (mlp): Sequential(
      (0): Linear(in_features=128, out_features=32, bias=False)
      (1): ReLU(inplace=True)
      (2): Linear(in_features=32, out_features=128, bias=False)
    )
  )
  (dotproduct_att): DotProductAttention()
  (cross_att): GATConv(128, 128, heads=4)
  (out): Linear(in_features=256, out_features=24, bias=True)
)
[2024-04-08 08:23:20] (train.py 231): INFO number of params: 457376
[2024-04-08 08:23:20] (train.py 265): INFO Start training
[2024-04-08 08:23:25] (train.py 293): INFO Epoch:0 tox21 trn_loss:7.940 trn_auc:0.612 lr:0.00217
[2024-04-08 08:23:25] (train.py 295): INFO Epoch:0 tox21 val_loss:3.825 val_auc:0.720 lr:0.00217
[2024-04-08 08:23:25] (train.py 297): INFO Epoch:0 tox21 test_loss:3.768 test_auc:0.707 lr:0.00217
…
[2024-04-08 11:20:44] (cross_validate.py 74): INFO Overall test SR-p53 auc = 0.848  0.022
[2024-04-08 11:20:44] (cross_validate.py 167): INFO num params: 324,764
[2024-04-08 11:20:44] (cross_validate.py 168): INFO 0.8402354631274802  0.0137609367855639 auc
[2024-04-08 11:20:44] (cross_validate.py 139): INFO round_5
[2024-04-08 11:20:44] (cross_validate.py 147): INFO {'MODEL.DEPTH': 2, 'MODEL.DROPOUT': 0.2, 'MODEL.HID': 64, 'MODEL.R': 4, 'MODEL.SLICES': 2, 'TRAIN.OPTIMIZER.BASE_LR': 0.0019856374728880076, 'TRAIN.OPTIMIZER.WEIGHT_DECAY': 0.0001}
[2024-04-08 11:20:44] (cross_validate.py 49): INFO Fold 0
[2024-04-08 11:20:44] (train.py 223): INFO HiGNN(
  (combinedfc1): Linear(in_features=128, out_features=64, bias=True)
  (lin_a): Linear(in_features=46, out_features=64, bias=True)
  (lin_b): Linear(in_features=10, out_features=64, bias=True)
  (lin_c): Linear(in_features=167, out_features=64, bias=True)
  (atom_convs): ModuleList(
    (0-1): 2 x NTNConv(64, 64, slices=2)
  )
  (lin_gate): Linear(in_features=192, out_features=64, bias=True)
  (feature_att): FeatureAttention(
    (mlp): Sequential(
      (0): Linear(in_features=64, out_features=16, bias=False)
      (1): ReLU(inplace=True)
      (2): Linear(in_features=16, out_features=64, bias=False)
    )
  )
  (dotproduct_att): DotProductAttention()
  (cross_att): GATConv(64, 64, heads=4)
  (out): Linear(in_features=128, out_features=24, bias=True)
)
[2024-04-08 11:20:44] (train.py 231): INFO number of params: 90716
[2024-04-08 11:20:44] (train.py 265): INFO Start training
[2024-04-08 11:20:50] (train.py 293): INFO Epoch:0 tox21 trn_loss:7.901 trn_auc:0.625 lr:0.00199
[2024-04-08 11:20:50] (train.py 295): INFO Epoch:0 tox21 val_loss:3.909 val_auc:0.690 lr:0.00199
[2024-04-08 11:20:50] (train.py 297): INFO Epoch:0 tox21 test_loss:3.763 test_auc:0.732 lr:0.00199
…
[2024-04-08 12:27:57] (cross_validate.py 74): INFO Overall test SR-p53 auc = 0.856  0.015
[2024-04-08 12:27:57] (cross_validate.py 167): INFO num params: 90,716
[2024-04-08 12:27:57] (cross_validate.py 168): INFO 0.8511222751972245  0.012878201526879879 auc
[2024-04-08 12:27:57] (cross_validate.py 139): INFO round_6
[2024-04-08 12:27:57] (cross_validate.py 147): INFO {'MODEL.DEPTH': 3, 'MODEL.DROPOUT': 0.2, 'MODEL.HID': 256, 'MODEL.R': 4, 'MODEL.SLICES': 4, 'TRAIN.OPTIMIZER.BASE_LR': 0.002165653487794375, 'TRAIN.OPTIMIZER.WEIGHT_DECAY': 1e-05}
[2024-04-08 12:27:57] (cross_validate.py 49): INFO Fold 0
[2024-04-08 12:27:57] (train.py 223): INFO HiGNN(
  (combinedfc1): Linear(in_features=512, out_features=256, bias=True)
  (lin_a): Linear(in_features=46, out_features=256, bias=True)
  (lin_b): Linear(in_features=10, out_features=256, bias=True)
  (lin_c): Linear(in_features=167, out_features=256, bias=True)
  (atom_convs): ModuleList(
    (0-2): 3 x NTNConv(256, 256, slices=4)
  )
  (lin_gate): Linear(in_features=768, out_features=256, bias=True)
  (feature_att): FeatureAttention(
    (mlp): Sequential(
      (0): Linear(in_features=256, out_features=64, bias=False)
      (1): ReLU(inplace=True)
      (2): Linear(in_features=64, out_features=256, bias=False)
    )
  )
  (dotproduct_att): DotProductAttention()
  (cross_att): GATConv(256, 256, heads=4)
  (out): Linear(in_features=512, out_features=24, bias=True)
)
[2024-04-08 12:27:57] (train.py 231): INFO number of params: 1884452
[2024-04-08 12:27:57] (train.py 265): INFO Start training
[2024-04-08 12:28:05] (train.py 293): INFO Epoch:0 tox21 trn_loss:7.830 trn_auc:0.646 lr:0.00217
[2024-04-08 12:28:05] (train.py 295): INFO Epoch:0 tox21 val_loss:3.927 val_auc:0.684 lr:0.00217
[2024-04-08 12:28:05] (train.py 297): INFO Epoch:0 tox21 test_loss:3.831 test_auc:0.731 lr:0.00217
…
[2024-04-08 14:17:53] (cross_validate.py 74): INFO Overall test SR-p53 auc = 0.856  0.026
[2024-04-08 14:17:53] (cross_validate.py 167): INFO num params: 1,884,452
[2024-04-08 14:17:53] (cross_validate.py 168): INFO 0.847753225634024  0.01957935753876157 auc
[2024-04-08 14:17:53] (cross_validate.py 139): INFO round_7
[2024-04-08 14:17:53] (cross_validate.py 147): INFO {'MODEL.DEPTH': 3, 'MODEL.DROPOUT': 0.5, 'MODEL.HID': 256, 'MODEL.R': 1, 'MODEL.SLICES': 2, 'TRAIN.OPTIMIZER.BASE_LR': 0.007092888191773424, 'TRAIN.OPTIMIZER.WEIGHT_DECAY': 1e-06}
[2024-04-08 14:17:53] (cross_validate.py 49): INFO Fold 0
[2024-04-08 14:17:53] (train.py 223): INFO HiGNN(
  (combinedfc1): Linear(in_features=512, out_features=256, bias=True)
  (lin_a): Linear(in_features=46, out_features=256, bias=True)
  (lin_b): Linear(in_features=10, out_features=256, bias=True)
  (lin_c): Linear(in_features=167, out_features=256, bias=True)
  (atom_convs): ModuleList(
    (0-2): 3 x NTNConv(256, 256, slices=2)
  )
  (lin_gate): Linear(in_features=768, out_features=256, bias=True)
  (feature_att): FeatureAttention(
    (mlp): Sequential(
      (0): Linear(in_features=256, out_features=256, bias=False)
      (1): ReLU(inplace=True)
      (2): Linear(in_features=256, out_features=256, bias=False)
    )
  )
  (dotproduct_att): DotProductAttention()
  (cross_att): GATConv(256, 256, heads=4)
  (out): Linear(in_features=512, out_features=24, bias=True)
)
[2024-04-08 14:17:53] (train.py 231): INFO number of params: 1584926
[2024-04-08 14:17:53] (train.py 265): INFO Start training
[2024-04-08 14:17:59] (train.py 293): INFO Epoch:0 tox21 trn_loss:11.884 trn_auc:0.579 lr:0.00709
[2024-04-08 14:17:59] (train.py 295): INFO Epoch:0 tox21 val_loss:4.055 val_auc:0.709 lr:0.00709
[2024-04-08 14:17:59] (train.py 297): INFO Epoch:0 tox21 test_loss:3.938 test_auc:0.743 lr:0.00709
…
[2024-04-08 15:48:32] (cross_validate.py 74): INFO Overall test SR-p53 auc = 0.803  0.023
[2024-04-08 15:48:32] (cross_validate.py 167): INFO num params: 1,584,926
[2024-04-08 15:48:32] (cross_validate.py 168): INFO 0.8037097261614466  0.019836075580666336 auc
[2024-04-08 15:48:32] (cross_validate.py 139): INFO round_8
[2024-04-08 15:48:32] (cross_validate.py 147): INFO {'MODEL.DEPTH': 3, 'MODEL.DROPOUT': 0.5, 'MODEL.HID': 128, 'MODEL.R': 2, 'MODEL.SLICES': 2, 'TRAIN.OPTIMIZER.BASE_LR': 0.005246772621423088, 'TRAIN.OPTIMIZER.WEIGHT_DECAY': 0.0001}
[2024-04-08 15:48:32] (cross_validate.py 49): INFO Fold 0
[2024-04-08 15:48:32] (train.py 223): INFO HiGNN(
  (combinedfc1): Linear(in_features=256, out_features=128, bias=True)
  (lin_a): Linear(in_features=46, out_features=128, bias=True)
  (lin_b): Linear(in_features=10, out_features=128, bias=True)
  (lin_c): Linear(in_features=167, out_features=128, bias=True)
  (atom_convs): ModuleList(
    (0-2): 3 x NTNConv(128, 128, slices=2)
  )
  (lin_gate): Linear(in_features=384, out_features=128, bias=True)
  (feature_att): FeatureAttention(
    (mlp): Sequential(
      (0): Linear(in_features=128, out_features=64, bias=False)
      (1): ReLU(inplace=True)
      (2): Linear(in_features=64, out_features=128, bias=False)
    )
  )
  (dotproduct_att): DotProductAttention()
  (cross_att): GATConv(128, 128, heads=4)
  (out): Linear(in_features=256, out_features=24, bias=True)
)
[2024-04-08 15:48:32] (train.py 231): INFO number of params: 399262
[2024-04-08 15:48:32] (train.py 265): INFO Start training
[2024-04-08 15:48:38] (train.py 293): INFO Epoch:0 tox21 trn_loss:8.051 trn_auc:0.587 lr:0.00525
[2024-04-08 15:48:38] (train.py 295): INFO Epoch:0 tox21 val_loss:4.079 val_auc:0.668 lr:0.00525
[2024-04-08 15:48:38] (train.py 297): INFO Epoch:0 tox21 test_loss:3.720 test_auc:0.714 lr:0.00525
…
[2024-04-08 20:15:23] (cross_validate.py 74): INFO Overall test SR-p53 auc = 0.846  0.022
[2024-04-08 20:15:23] (cross_validate.py 167): INFO num params: 399,262
[2024-04-08 20:15:23] (cross_validate.py 168): INFO 0.846984177900892  0.014107086006304486 auc
[2024-04-08 20:15:23] (cross_validate.py 139): INFO round_11
[2024-04-08 20:15:23] (cross_validate.py 147): INFO {'MODEL.DEPTH': 4, 'MODEL.DROPOUT': 0.5, 'MODEL.HID': 128, 'MODEL.R': 1, 'MODEL.SLICES': 2, 'TRAIN.OPTIMIZER.BASE_LR': 0.0002652482413377475, 'TRAIN.OPTIMIZER.WEIGHT_DECAY': 1e-05}
[2024-04-08 20:15:23] (cross_validate.py 49): INFO Fold 0
[2024-04-08 20:15:23] (train.py 223): INFO HiGNN(
  (combinedfc1): Linear(in_features=256, out_features=128, bias=True)
  (lin_a): Linear(in_features=46, out_features=128, bias=True)
  (lin_b): Linear(in_features=10, out_features=128, bias=True)
  (lin_c): Linear(in_features=167, out_features=128, bias=True)
  (atom_convs): ModuleList(
    (0-3): 4 x NTNConv(128, 128, slices=2)
  )
  (lin_gate): Linear(in_features=384, out_features=128, bias=True)
  (feature_att): FeatureAttention(
    (mlp): Sequential(
      (0): Linear(in_features=128, out_features=128, bias=False)
      (1): ReLU(inplace=True)
      (2): Linear(in_features=128, out_features=128, bias=False)
    )
  )
  (dotproduct_att): DotProductAttention()
  (cross_att): GATConv(128, 128, heads=4)
  (out): Linear(in_features=256, out_features=24, bias=True)
)
[2024-04-08 20:15:23] (train.py 231): INFO number of params: 481952
[2024-04-08 20:15:23] (train.py 265): INFO Start training
[2024-04-08 20:15:29] (train.py 293): INFO Epoch:0 tox21 trn_loss:8.205 trn_auc:0.522 lr:0.00027
[2024-04-08 20:15:29] (train.py 295): INFO Epoch:0 tox21 val_loss:4.159 val_auc:0.671 lr:0.00027
[2024-04-08 20:15:29] (train.py 297): INFO Epoch:0 tox21 test_loss:3.945 test_auc:0.718 lr:0.00027
…
[2024-04-08 22:33:15] (cross_validate.py 74): INFO Overall test SR-p53 auc = 0.840  0.018
[2024-04-08 22:33:15] (cross_validate.py 167): INFO num params: 481,952
[2024-04-08 22:33:15] (cross_validate.py 168): INFO 0.8367735336238583  0.013413390797174837 auc
[2024-04-08 22:33:15] (cross_validate.py 139): INFO round_12
[2024-04-08 22:33:15] (cross_validate.py 147): INFO {'MODEL.DEPTH': 3, 'MODEL.DROPOUT': 0.5, 'MODEL.HID': 64, 'MODEL.R': 1, 'MODEL.SLICES': 1, 'TRAIN.OPTIMIZER.BASE_LR': 0.0026297208555693093, 'TRAIN.OPTIMIZER.WEIGHT_DECAY': 1e-06}
[2024-04-08 22:33:15] (cross_validate.py 49): INFO Fold 0
[2024-04-08 22:33:15] (train.py 223): INFO HiGNN(
  (combinedfc1): Linear(in_features=128, out_features=64, bias=True)
  (lin_a): Linear(in_features=46, out_features=64, bias=True)
  (lin_b): Linear(in_features=10, out_features=64, bias=True)
  (lin_c): Linear(in_features=167, out_features=64, bias=True)
  (atom_convs): ModuleList(
    (0-2): 3 x NTNConv(64, 64, slices=1)
  )
  (lin_gate): Linear(in_features=192, out_features=64, bias=True)
  (feature_att): FeatureAttention(
    (mlp): Sequential(
      (0): Linear(in_features=64, out_features=64, bias=False)
      (1): ReLU(inplace=True)
      (2): Linear(in_features=64, out_features=64, bias=False)
    )
  )
  (dotproduct_att): DotProductAttention()
  (cross_att): GATConv(64, 64, heads=4)
  (out): Linear(in_features=128, out_features=24, bias=True)
)
[2024-04-08 22:33:15] (train.py 231): INFO number of params: 100763
[2024-04-08 22:33:15] (train.py 265): INFO Start training
[2024-04-08 22:33:21] (train.py 293): INFO Epoch:0 tox21 trn_loss:8.046 trn_auc:0.601 lr:0.00263
[2024-04-08 22:33:21] (train.py 295): INFO Epoch:0 tox21 val_loss:4.090 val_auc:0.677 lr:0.00263
[2024-04-08 22:33:21] (train.py 297): INFO Epoch:0 tox21 test_loss:3.908 test_auc:0.724 lr:0.00263
…
