[2024-04-07 09:45:02] (cross_validate.py 291): INFO GPU mode...
[2024-04-07 09:45:02] (cross_validate.py 140): INFO round_0
[2024-04-07 09:45:02] (cross_validate.py 148): INFO {'MODEL.DEPTH': 2, 'MODEL.DROPOUT': 0.1, 'MODEL.HID': 64, 'MODEL.R': 4, 'MODEL.SLICES': 1, 'TRAIN.OPTIMIZER.BASE_LR': 0.0006462285692687926, 'TRAIN.OPTIMIZER.WEIGHT_DECAY': 1e-06}
[2024-04-07 09:45:02] (cross_validate.py 50): INFO Fold 0
[2024-04-07 09:45:02] (train.py 606): INFO HiGNN(
  (combinedfc1): Linear(in_features=128, out_features=64, bias=True)
  (lin_a): Linear(in_features=46, out_features=64, bias=True)
  (lin_b): Linear(in_features=10, out_features=64, bias=True)
  (lin_c): Linear(in_features=167, out_features=64, bias=True)
  (atom_convs): ModuleList(
    (0-1): 2 x NTNConv(64, 64, slices=1)
  )
  (lin_gate): Linear(in_features=192, out_features=64, bias=True)
  (feature_att): FeatureAttention(
    (mlp): Sequential(
      (0): Linear(in_features=64, out_features=16, bias=False)
      (1): ReLU(inplace=True)
      (2): Linear(in_features=16, out_features=64, bias=False)
    )
  )
  (dotproduct_att): DotProductAttention()
  (cross_att): GATConv(64, 64, heads=4)
  (out): Linear(in_features=128, out_features=4, bias=True)
)
[2024-04-07 09:45:04] (train.py 614): INFO number of params: 79558
[2024-04-07 09:45:04] (train.py 648): INFO Start training
[2024-04-07 09:45:06] (train.py 676): INFO Epoch:0 clintox trn_loss:1.404 trn_auc:0.451 lr:0.00065
[2024-04-07 09:45:06] (train.py 678): INFO Epoch:0 clintox val_loss:1.034 val_auc:0.535 lr:0.00065
[2024-04-07 09:45:06] (train.py 680): INFO Epoch:0 clintox test_loss:1.046 test_auc:0.490 lr:0.00065
…
[2024-04-07 10:02:41] (cross_validate.py 71): INFO Overall test auc = 0.878  0.042
[2024-04-07 10:02:41] (cross_validate.py 168): INFO num params: 79,558
[2024-04-07 10:02:41] (cross_validate.py 169): INFO 0.8775601081147894  0.04203441740089578 auc
[2024-04-07 10:02:41] (cross_validate.py 140): INFO round_1
[2024-04-07 10:02:41] (cross_validate.py 148): INFO {'MODEL.DEPTH': 4, 'MODEL.DROPOUT': 0.5, 'MODEL.HID': 256, 'MODEL.R': 2, 'MODEL.SLICES': 1, 'TRAIN.OPTIMIZER.BASE_LR': 0.00019945153512863272, 'TRAIN.OPTIMIZER.WEIGHT_DECAY': 1e-06}
[2024-04-07 10:02:41] (cross_validate.py 50): INFO Fold 0
[2024-04-07 10:02:41] (train.py 606): INFO HiGNN(
  (combinedfc1): Linear(in_features=512, out_features=256, bias=True)
  (lin_a): Linear(in_features=46, out_features=256, bias=True)
  (lin_b): Linear(in_features=10, out_features=256, bias=True)
  (lin_c): Linear(in_features=167, out_features=256, bias=True)
  (atom_convs): ModuleList(
    (0-3): 4 x NTNConv(256, 256, slices=1)
  )
  (lin_gate): Linear(in_features=768, out_features=256, bias=True)
  (feature_att): FeatureAttention(
    (mlp): Sequential(
      (0): Linear(in_features=256, out_features=128, bias=False)
      (1): ReLU(inplace=True)
      (2): Linear(in_features=128, out_features=256, bias=False)
    )
  )
  (dotproduct_att): DotProductAttention()
  (cross_att): GATConv(256, 256, heads=4)
  (out): Linear(in_features=512, out_features=4, bias=True)
)
[2024-04-07 10:02:41] (train.py 614): INFO number of params: 1507592
[2024-04-07 10:02:41] (train.py 648): INFO Start training
[2024-04-07 10:02:43] (train.py 676): INFO Epoch:0 clintox trn_loss:1.392 trn_auc:0.482 lr:0.00020
[2024-04-07 10:02:43] (train.py 678): INFO Epoch:0 clintox val_loss:1.038 val_auc:0.499 lr:0.00020
[2024-04-07 10:02:43] (train.py 680): INFO Epoch:0 clintox test_loss:1.040 test_auc:0.540 lr:0.00020
…
[2024-04-07 10:40:10] (cross_validate.py 168): INFO num params: 1,507,592
[2024-04-07 10:40:10] (cross_validate.py 169): INFO 0.9106768714010414  0.027519735749040573 auc
[2024-04-07 10:40:10] (cross_validate.py 140): INFO round_2
[2024-04-07 10:40:10] (cross_validate.py 148): INFO {'MODEL.DEPTH': 3, 'MODEL.DROPOUT': 0.30000000000000004, 'MODEL.HID': 64, 'MODEL.R': 1, 'MODEL.SLICES': 1, 'TRAIN.OPTIMIZER.BASE_LR': 0.0019008597075417365, 'TRAIN.OPTIMIZER.WEIGHT_DECAY': 1e-05}
[2024-04-07 10:40:10] (cross_validate.py 50): INFO Fold 0
[2024-04-07 10:40:10] (train.py 606): INFO HiGNN(
  (combinedfc1): Linear(in_features=128, out_features=64, bias=True)
  (lin_a): Linear(in_features=46, out_features=64, bias=True)
  (lin_b): Linear(in_features=10, out_features=64, bias=True)
  (lin_c): Linear(in_features=167, out_features=64, bias=True)
  (atom_convs): ModuleList(
    (0-2): 3 x NTNConv(64, 64, slices=1)
  )
  (lin_gate): Linear(in_features=192, out_features=64, bias=True)
  (feature_att): FeatureAttention(
    (mlp): Sequential(
      (0): Linear(in_features=64, out_features=64, bias=False)
      (1): ReLU(inplace=True)
      (2): Linear(in_features=64, out_features=64, bias=False)
    )
  )
  (dotproduct_att): DotProductAttention()
  (cross_att): GATConv(64, 64, heads=4)
  (out): Linear(in_features=128, out_features=4, bias=True)
)
[2024-04-07 10:40:10] (train.py 614): INFO number of params: 98183
[2024-04-07 10:40:10] (train.py 648): INFO Start training
[2024-04-07 10:40:11] (train.py 676): INFO Epoch:0 clintox trn_loss:1.399 trn_auc:0.453 lr:0.00190
[2024-04-07 10:40:11] (train.py 678): INFO Epoch:0 clintox val_loss:1.033 val_auc:0.649 lr:0.00190
[2024-04-07 10:40:11] (train.py 680): INFO Epoch:0 clintox test_loss:1.040 test_auc:0.469 lr:0.00190
…
[2024-04-07 10:57:28] (cross_validate.py 71): INFO Overall test auc = 0.915  0.032
[2024-04-07 10:57:28] (cross_validate.py 168): INFO num params: 98,183
[2024-04-07 10:57:28] (cross_validate.py 169): INFO 0.9146055487034375  0.031990464432866135 auc
[2024-04-07 10:57:28] (cross_validate.py 140): INFO round_3
[2024-04-07 10:57:28] (cross_validate.py 148): INFO {'MODEL.DEPTH': 2, 'MODEL.DROPOUT': 0.5, 'MODEL.HID': 64, 'MODEL.R': 2, 'MODEL.SLICES': 4, 'TRAIN.OPTIMIZER.BASE_LR': 0.00020115869393324623, 'TRAIN.OPTIMIZER.WEIGHT_DECAY': 1e-06}
[2024-04-07 10:57:28] (cross_validate.py 50): INFO Fold 0
[2024-04-07 10:57:28] (train.py 606): INFO HiGNN(
  (combinedfc1): Linear(in_features=128, out_features=64, bias=True)
  (lin_a): Linear(in_features=46, out_features=64, bias=True)
  (lin_b): Linear(in_features=10, out_features=64, bias=True)
  (lin_c): Linear(in_features=167, out_features=64, bias=True)
  (atom_convs): ModuleList(
    (0-1): 2 x NTNConv(64, 64, slices=4)
  )
  (lin_gate): Linear(in_features=192, out_features=64, bias=True)
  (feature_att): FeatureAttention(
    (mlp): Sequential(
      (0): Linear(in_features=64, out_features=32, bias=False)
      (1): ReLU(inplace=True)
      (2): Linear(in_features=32, out_features=64, bias=False)
    )
  )
  (dotproduct_att): DotProductAttention()
  (cross_att): GATConv(64, 64, heads=4)
  (out): Linear(in_features=128, out_features=4, bias=True)
)
[2024-04-07 10:57:28] (train.py 614): INFO number of params: 107340
[2024-04-07 10:57:28] (train.py 648): INFO Start training
[2024-04-07 10:57:29] (train.py 676): INFO Epoch:0 clintox trn_loss:1.431 trn_auc:0.452 lr:0.00020
[2024-04-07 10:57:29] (train.py 678): INFO Epoch:0 clintox val_loss:1.030 val_auc:0.402 lr:0.00020
[2024-04-07 10:57:29] (train.py 680): INFO Epoch:0 clintox test_loss:1.053 test_auc:0.354 lr:0.00020
…
[2024-04-07 11:22:56] (cross_validate.py 71): INFO Overall test auc = 0.852  0.052
[2024-04-07 11:22:56] (cross_validate.py 168): INFO num params: 107,340
[2024-04-07 11:22:56] (cross_validate.py 169): INFO 0.8519853427794285  0.05200210899800563 auc
[2024-04-07 11:22:56] (cross_validate.py 140): INFO round_4
[2024-04-07 11:22:56] (cross_validate.py 148): INFO {'MODEL.DEPTH': 3, 'MODEL.DROPOUT': 0.4, 'MODEL.HID': 128, 'MODEL.R': 4, 'MODEL.SLICES': 1, 'TRAIN.OPTIMIZER.BASE_LR': 0.008488793677001335, 'TRAIN.OPTIMIZER.WEIGHT_DECAY': 0.0001}
[2024-04-07 11:22:56] (cross_validate.py 50): INFO Fold 0
[2024-04-07 11:22:56] (train.py 606): INFO HiGNN(
  (combinedfc1): Linear(in_features=256, out_features=128, bias=True)
  (lin_a): Linear(in_features=46, out_features=128, bias=True)
  (lin_b): Linear(in_features=10, out_features=128, bias=True)
  (lin_c): Linear(in_features=167, out_features=128, bias=True)
  (atom_convs): ModuleList(
    (0-2): 3 x NTNConv(128, 128, slices=1)
  )
  (lin_gate): Linear(in_features=384, out_features=128, bias=True)
  (feature_att): FeatureAttention(
    (mlp): Sequential(
      (0): Linear(in_features=128, out_features=32, bias=False)
      (1): ReLU(inplace=True)
      (2): Linear(in_features=32, out_features=128, bias=False)
    )
  )
  (dotproduct_att): DotProductAttention()
  (cross_att): GATConv(128, 128, heads=4)
  (out): Linear(in_features=256, out_features=4, bias=True)
)
[2024-04-07 11:22:56] (train.py 614): INFO number of params: 335623
[2024-04-07 11:22:56] (train.py 648): INFO Start training
[2024-04-07 11:22:57] (train.py 676): INFO Epoch:0 clintox trn_loss:1.905 trn_auc:0.465 lr:0.00849
[2024-04-07 11:22:57] (train.py 678): INFO Epoch:0 clintox val_loss:1.038 val_auc:0.606 lr:0.00849
[2024-04-07 11:22:57] (train.py 680): INFO Epoch:0 clintox test_loss:1.041 test_auc:0.387 lr:0.00849
…
[2024-04-07 11:56:04] (cross_validate.py 71): INFO Overall test auc = 0.900  0.040
[2024-04-07 11:56:04] (cross_validate.py 168): INFO num params: 107,340
[2024-04-07 11:56:04] (cross_validate.py 169): INFO 0.8999969618420318  0.039766848457291566 auc
[2024-04-07 11:56:04] (cross_validate.py 140): INFO round_6
[2024-04-07 11:56:04] (cross_validate.py 148): INFO {'MODEL.DEPTH': 4, 'MODEL.DROPOUT': 0.1, 'MODEL.HID': 256, 'MODEL.R': 4, 'MODEL.SLICES': 1, 'TRAIN.OPTIMIZER.BASE_LR': 0.0004335080490574044, 'TRAIN.OPTIMIZER.WEIGHT_DECAY': 0.0001}
[2024-04-07 11:56:04] (cross_validate.py 50): INFO Fold 0
[2024-04-07 11:56:04] (train.py 606): INFO HiGNN(
  (combinedfc1): Linear(in_features=512, out_features=256, bias=True)
  (lin_a): Linear(in_features=46, out_features=256, bias=True)
  (lin_b): Linear(in_features=10, out_features=256, bias=True)
  (lin_c): Linear(in_features=167, out_features=256, bias=True)
  (atom_convs): ModuleList(
    (0-3): 4 x NTNConv(256, 256, slices=1)
  )
  (lin_gate): Linear(in_features=768, out_features=256, bias=True)
  (feature_att): FeatureAttention(
    (mlp): Sequential(
      (0): Linear(in_features=256, out_features=64, bias=False)
      (1): ReLU(inplace=True)
      (2): Linear(in_features=64, out_features=256, bias=False)
    )
  )
  (dotproduct_att): DotProductAttention()
  (cross_att): GATConv(256, 256, heads=4)
  (out): Linear(in_features=512, out_features=4, bias=True)
)
[2024-04-07 11:56:04] (train.py 614): INFO number of params: 1474824
[2024-04-07 11:56:04] (train.py 648): INFO Start training
[2024-04-07 11:56:06] (train.py 676): INFO Epoch:0 clintox trn_loss:1.397 trn_auc:0.436 lr:0.00043
[2024-04-07 11:56:06] (train.py 678): INFO Epoch:0 clintox val_loss:1.037 val_auc:0.566 lr:0.00043
[2024-04-07 11:56:06] (train.py 680): INFO Epoch:0 clintox test_loss:1.041 test_auc:0.433 lr:0.00043
…
[2024-04-07 14:44:24] (cross_validate.py 71): INFO Overall test auc = 0.920  0.028
[2024-04-07 14:44:24] (cross_validate.py 168): INFO num params: 1,507,592
[2024-04-07 14:44:24] (cross_validate.py 169): INFO 0.9197479681219516  0.027978708538873423 auc
[2024-04-07 14:44:24] (cross_validate.py 140): INFO round_12
[2024-04-07 14:44:24] (cross_validate.py 148): INFO {'MODEL.DEPTH': 3, 'MODEL.DROPOUT': 0.1, 'MODEL.HID': 128, 'MODEL.R': 1, 'MODEL.SLICES': 2, 'TRAIN.OPTIMIZER.BASE_LR': 0.002831756039709888, 'TRAIN.OPTIMIZER.WEIGHT_DECAY': 1e-06}
[2024-04-07 14:44:24] (cross_validate.py 50): INFO Fold 0
[2024-04-07 14:44:24] (train.py 606): INFO HiGNN(
  (combinedfc1): Linear(in_features=256, out_features=128, bias=True)
  (lin_a): Linear(in_features=46, out_features=128, bias=True)
  (lin_b): Linear(in_features=10, out_features=128, bias=True)
  (lin_c): Linear(in_features=167, out_features=128, bias=True)
  (atom_convs): ModuleList(
    (0-2): 3 x NTNConv(128, 128, slices=2)
  )
  (lin_gate): Linear(in_features=384, out_features=128, bias=True)
  (feature_att): FeatureAttention(
    (mlp): Sequential(
      (0): Linear(in_features=128, out_features=128, bias=False)
      (1): ReLU(inplace=True)
      (2): Linear(in_features=128, out_features=128, bias=False)
    )
  )
  (dotproduct_att): DotProductAttention()
  (cross_att): GATConv(128, 128, heads=4)
  (out): Linear(in_features=256, out_features=4, bias=True)
)
[2024-04-07 14:44:24] (train.py 614): INFO number of params: 410506
[2024-04-07 14:44:24] (train.py 648): INFO Start training
[2024-04-07 14:44:26] (train.py 676): INFO Epoch:0 clintox trn_loss:1.419 trn_auc:0.502 lr:0.00283
[2024-04-07 14:44:26] (train.py 678): INFO Epoch:0 clintox val_loss:1.029 val_auc:0.596 lr:0.00283
[2024-04-07 14:44:26] (train.py 680): INFO Epoch:0 clintox test_loss:1.044 test_auc:0.456 lr:0.00283
…
[2024-04-07 15:02:39] (cross_validate.py 71): INFO Overall test auc = 0.910  0.046
[2024-04-07 15:02:39] (cross_validate.py 168): INFO num params: 410,506
[2024-04-07 15:02:39] (cross_validate.py 169): INFO 0.9103555832128626  0.04647594485314189 auc
[2024-04-07 15:02:39] (cross_validate.py 140): INFO round_13
[2024-04-07 15:02:39] (cross_validate.py 148): INFO {'MODEL.DEPTH': 4, 'MODEL.DROPOUT': 0.1, 'MODEL.HID': 128, 'MODEL.R': 2, 'MODEL.SLICES': 2, 'TRAIN.OPTIMIZER.BASE_LR': 0.00018001853654758565, 'TRAIN.OPTIMIZER.WEIGHT_DECAY': 1e-06}
[2024-04-07 15:02:39] (cross_validate.py 50): INFO Fold 0
[2024-04-07 15:02:39] (train.py 606): INFO HiGNN(
  (combinedfc1): Linear(in_features=256, out_features=128, bias=True)
  (lin_a): Linear(in_features=46, out_features=128, bias=True)
  (lin_b): Linear(in_features=10, out_features=128, bias=True)
  (lin_c): Linear(in_features=167, out_features=128, bias=True)
  (atom_convs): ModuleList(
    (0-3): 4 x NTNConv(128, 128, slices=2)
  )
  (lin_gate): Linear(in_features=384, out_features=128, bias=True)
  (feature_att): FeatureAttention(
    (mlp): Sequential(
      (0): Linear(in_features=128, out_features=64, bias=False)
      (1): ReLU(inplace=True)
      (2): Linear(in_features=64, out_features=128, bias=False)
    )
  )
  (dotproduct_att): DotProductAttention()
  (cross_att): GATConv(128, 128, heads=4)
  (out): Linear(in_features=256, out_features=4, bias=True)
)
[2024-04-07 15:02:39] (train.py 614): INFO number of params: 460428
[2024-04-07 15:02:39] (train.py 648): INFO Start training
[2024-04-07 15:02:41] (train.py 676): INFO Epoch:0 clintox trn_loss:1.386 trn_auc:0.489 lr:0.00018
[2024-04-07 15:02:41] (train.py 678): INFO Epoch:0 clintox val_loss:1.037 val_auc:0.621 lr:0.00018
[2024-04-07 15:02:41] (train.py 680): INFO Epoch:0 clintox test_loss:1.040 test_auc:0.442 lr:0.00018
…
