[2024-03-25 18:19:08] (cross_validate.py 291): INFO GPU mode...
[2024-03-25 18:19:08] (cross_validate.py 140): INFO round_0
[2024-03-25 18:19:08] (cross_validate.py 148): INFO {'MODEL.DEPTH': 3, 'MODEL.DROPOUT': 0.1, 'MODEL.HID': 256, 'MODEL.R': 4, 'MODEL.SLICES': 2, 'TRAIN.OPTIMIZER.BASE_LR': 0.0003819526266646859, 'TRAIN.OPTIMIZER.WEIGHT_DECAY': 1e-05}
[2024-03-25 18:19:08] (cross_validate.py 50): INFO Fold 0
[2024-03-25 18:19:08] (train.py 223): INFO HiGNN(
  (combinedfc1): Linear(in_features=512, out_features=256, bias=True)
  (lin_a): Linear(in_features=46, out_features=256, bias=True)
  (lin_b): Linear(in_features=10, out_features=256, bias=True)
  (lin_c): Linear(in_features=167, out_features=256, bias=True)
  (atom_convs): ModuleList(
    (0-2): 3 x NTNConv(256, 256, slices=2)
  )
  (lin_gate): Linear(in_features=768, out_features=256, bias=True)
  (feature_att): FeatureAttention(
    (mlp): Sequential(
      (0): Linear(in_features=256, out_features=64, bias=False)
      (1): ReLU(inplace=True)
      (2): Linear(in_features=64, out_features=256, bias=False)
    )
  )
  (cross_att): GATConv(256, 256, heads=4)
  (out): Linear(in_features=512, out_features=4, bias=True)
)
[2024-03-25 18:19:11] (train.py 231): INFO number of params: 1476362
[2024-03-25 18:19:11] (train.py 265): INFO Start training
[2024-03-25 18:19:13] (train.py 285): INFO Epoch:0 clintox trn_loss:1.392 trn_auc:0.476 lr:0.00038
[2024-03-25 18:19:13] (train.py 287): INFO Epoch:0 clintox val_loss:1.026 val_auc:0.720 lr:0.00038
[2024-03-25 18:19:13] (train.py 289): INFO Epoch:0 clintox test_loss:1.036 test_auc:0.565 lr:0.00038
…
[2024-03-25 18:44:16] (cross_validate.py 168): INFO num params: 1,476,362
[2024-03-25 18:44:16] (cross_validate.py 169): INFO 0.8999606144504521  0.040571811826298695 auc
[2024-03-25 18:44:16] (cross_validate.py 140): INFO round_1
[2024-03-25 18:44:16] (cross_validate.py 148): INFO {'MODEL.DEPTH': 3, 'MODEL.DROPOUT': 0.30000000000000004, 'MODEL.HID': 128, 'MODEL.R': 2, 'MODEL.SLICES': 1, 'TRAIN.OPTIMIZER.BASE_LR': 0.00011007430727775755, 'TRAIN.OPTIMIZER.WEIGHT_DECAY': 1e-05}
[2024-03-25 18:44:16] (cross_validate.py 50): INFO Fold 0
[2024-03-25 18:44:16] (train.py 223): INFO HiGNN(
  (combinedfc1): Linear(in_features=256, out_features=128, bias=True)
  (lin_a): Linear(in_features=46, out_features=128, bias=True)
  (lin_b): Linear(in_features=10, out_features=128, bias=True)
  (lin_c): Linear(in_features=167, out_features=128, bias=True)
  (atom_convs): ModuleList(
    (0-2): 3 x NTNConv(128, 128, slices=1)
  )
  (lin_gate): Linear(in_features=384, out_features=128, bias=True)
  (feature_att): FeatureAttention(
    (mlp): Sequential(
      (0): Linear(in_features=128, out_features=64, bias=False)
      (1): ReLU(inplace=True)
      (2): Linear(in_features=64, out_features=128, bias=False)
    )
  )
  (cross_att): GATConv(128, 128, heads=4)
  (out): Linear(in_features=256, out_features=4, bias=True)
)
[2024-03-25 18:44:16] (train.py 231): INFO number of params: 343815
[2024-03-25 18:44:16] (train.py 265): INFO Start training
[2024-03-25 18:44:18] (train.py 285): INFO Epoch:0 clintox trn_loss:1.385 trn_auc:0.546 lr:0.00011
[2024-03-25 18:44:18] (train.py 287): INFO Epoch:0 clintox val_loss:1.038 val_auc:0.746 lr:0.00011
[2024-03-25 18:44:18] (train.py 289): INFO Epoch:0 clintox test_loss:1.038 test_auc:0.623 lr:0.00011
…
[2024-03-25 19:09:26] (cross_validate.py 75): INFO Overall test CT_TOX auc = 0.851  0.052
[2024-03-25 19:09:26] (cross_validate.py 168): INFO num params: 343,815
[2024-03-25 19:09:26] (cross_validate.py 169): INFO 0.8625376161316286  0.04925944616136406 auc
[2024-03-25 19:09:26] (cross_validate.py 140): INFO round_2
[2024-03-25 19:09:26] (cross_validate.py 148): INFO {'MODEL.DEPTH': 3, 'MODEL.DROPOUT': 0.0, 'MODEL.HID': 256, 'MODEL.R': 2, 'MODEL.SLICES': 1, 'TRAIN.OPTIMIZER.BASE_LR': 0.0016904776907842847, 'TRAIN.OPTIMIZER.WEIGHT_DECAY': 1e-06}
[2024-03-25 19:09:26] (cross_validate.py 50): INFO Fold 0
[2024-03-25 19:09:26] (train.py 223): INFO HiGNN(
  (combinedfc1): Linear(in_features=512, out_features=256, bias=True)
  (lin_a): Linear(in_features=46, out_features=256, bias=True)
  (lin_b): Linear(in_features=10, out_features=256, bias=True)
  (lin_c): Linear(in_features=167, out_features=256, bias=True)
  (atom_convs): ModuleList(
    (0-2): 3 x NTNConv(256, 256, slices=1)
  )
  (lin_gate): Linear(in_features=768, out_features=256, bias=True)
  (feature_att): FeatureAttention(
    (mlp): Sequential(
      (0): Linear(in_features=256, out_features=128, bias=False)
      (1): ReLU(inplace=True)
      (2): Linear(in_features=128, out_features=256, bias=False)
    )
  )
  (cross_att): GATConv(256, 256, heads=4)
  (out): Linear(in_features=512, out_features=4, bias=True)
)
[2024-03-25 19:09:26] (train.py 231): INFO number of params: 1310215
[2024-03-25 19:09:26] (train.py 265): INFO Start training
[2024-03-25 19:09:28] (train.py 285): INFO Epoch:0 clintox trn_loss:1.864 trn_auc:0.568 lr:0.00169
[2024-03-25 19:09:28] (train.py 287): INFO Epoch:0 clintox val_loss:0.980 val_auc:0.726 lr:0.00169
[2024-03-25 19:09:28] (train.py 289): INFO Epoch:0 clintox test_loss:1.039 test_auc:0.570 lr:0.00169
…
[2024-03-25 19:26:08] (cross_validate.py 75): INFO Overall test CT_TOX auc = 0.908  0.028
[2024-03-25 19:26:08] (cross_validate.py 168): INFO num params: 1,310,215
[2024-03-25 19:26:08] (cross_validate.py 169): INFO 0.9144158168412135  0.02767382336859861 auc
[2024-03-25 19:26:08] (cross_validate.py 140): INFO round_3
[2024-03-25 19:26:08] (cross_validate.py 148): INFO {'MODEL.DEPTH': 2, 'MODEL.DROPOUT': 0.4, 'MODEL.HID': 64, 'MODEL.R': 1, 'MODEL.SLICES': 4, 'TRAIN.OPTIMIZER.BASE_LR': 0.00043500984875329934, 'TRAIN.OPTIMIZER.WEIGHT_DECAY': 1e-06}
[2024-03-25 19:26:08] (cross_validate.py 50): INFO Fold 0
[2024-03-25 19:26:08] (train.py 223): INFO HiGNN(
  (combinedfc1): Linear(in_features=128, out_features=64, bias=True)
  (lin_a): Linear(in_features=46, out_features=64, bias=True)
  (lin_b): Linear(in_features=10, out_features=64, bias=True)
  (lin_c): Linear(in_features=167, out_features=64, bias=True)
  (atom_convs): ModuleList(
    (0-1): 2 x NTNConv(64, 64, slices=4)
  )
  (lin_gate): Linear(in_features=192, out_features=64, bias=True)
  (feature_att): FeatureAttention(
    (mlp): Sequential(
      (0): Linear(in_features=64, out_features=64, bias=False)
      (1): ReLU(inplace=True)
      (2): Linear(in_features=64, out_features=64, bias=False)
    )
  )
  (cross_att): GATConv(64, 64, heads=4)
  (out): Linear(in_features=128, out_features=4, bias=True)
)
[2024-03-25 19:26:08] (train.py 231): INFO number of params: 111436
[2024-03-25 19:26:08] (train.py 265): INFO Start training
[2024-03-25 19:26:10] (train.py 285): INFO Epoch:0 clintox trn_loss:1.399 trn_auc:0.573 lr:0.00044
[2024-03-25 19:26:10] (train.py 287): INFO Epoch:0 clintox val_loss:1.030 val_auc:0.737 lr:0.00044
[2024-03-25 19:26:10] (train.py 289): INFO Epoch:0 clintox test_loss:1.043 test_auc:0.602 lr:0.00044
…
[2024-03-25 21:52:34] (cross_validate.py 75): INFO Overall test CT_TOX auc = 0.869  0.055
[2024-03-25 21:52:34] (cross_validate.py 168): INFO num params: 110,664
[2024-03-25 21:52:34] (cross_validate.py 169): INFO 0.8808316664002265  0.05270934115040268 auc
[2024-03-25 21:52:34] (cross_validate.py 140): INFO round_11
[2024-03-25 21:52:34] (cross_validate.py 148): INFO {'MODEL.DEPTH': 4, 'MODEL.DROPOUT': 0.4, 'MODEL.HID': 64, 'MODEL.R': 4, 'MODEL.SLICES': 2, 'TRAIN.OPTIMIZER.BASE_LR': 0.0022908419474360338, 'TRAIN.OPTIMIZER.WEIGHT_DECAY': 1e-05}
[2024-03-25 21:52:34] (cross_validate.py 50): INFO Fold 0
[2024-03-25 21:52:34] (train.py 223): INFO HiGNN(
  (combinedfc1): Linear(in_features=128, out_features=64, bias=True)
  (lin_a): Linear(in_features=46, out_features=64, bias=True)
  (lin_b): Linear(in_features=10, out_features=64, bias=True)
  (lin_c): Linear(in_features=167, out_features=64, bias=True)
  (atom_convs): ModuleList(
    (0-3): 4 x NTNConv(64, 64, slices=2)
  )
  (lin_gate): Linear(in_features=192, out_features=64, bias=True)
  (feature_att): FeatureAttention(
    (mlp): Sequential(
      (0): Linear(in_features=64, out_features=16, bias=False)
      (1): ReLU(inplace=True)
      (2): Linear(in_features=16, out_features=64, bias=False)
    )
  )
  (cross_att): GATConv(64, 64, heads=4)
  (out): Linear(in_features=128, out_features=4, bias=True)
)
[2024-03-25 21:52:34] (train.py 231): INFO number of params: 121676
[2024-03-25 21:52:34] (train.py 265): INFO Start training
[2024-03-25 21:52:36] (train.py 285): INFO Epoch:0 clintox trn_loss:1.391 trn_auc:0.461 lr:0.00229
[2024-03-25 21:52:36] (train.py 287): INFO Epoch:0 clintox val_loss:1.032 val_auc:0.621 lr:0.00229
[2024-03-25 21:52:36] (train.py 289): INFO Epoch:0 clintox test_loss:1.036 test_auc:0.552 lr:0.00229
…
[2024-03-25 22:29:03] (cross_validate.py 75): INFO Overall test CT_TOX auc = 0.905  0.035
[2024-03-25 22:29:03] (cross_validate.py 168): INFO num params: 494,736
[2024-03-25 22:29:03] (cross_validate.py 169): INFO 0.9150312469540453  0.035510834914978875 auc
[2024-03-25 22:29:03] (cross_validate.py 140): INFO round_13
[2024-03-25 22:29:03] (cross_validate.py 148): INFO {'MODEL.DEPTH': 3, 'MODEL.DROPOUT': 0.2, 'MODEL.HID': 128, 'MODEL.R': 1, 'MODEL.SLICES': 4, 'TRAIN.OPTIMIZER.BASE_LR': 0.00043703863521910507, 'TRAIN.OPTIMIZER.WEIGHT_DECAY': 1e-05}
[2024-03-25 22:29:03] (cross_validate.py 50): INFO Fold 0
[2024-03-25 22:29:03] (train.py 223): INFO HiGNN(
  (combinedfc1): Linear(in_features=256, out_features=128, bias=True)
  (lin_a): Linear(in_features=46, out_features=128, bias=True)
  (lin_b): Linear(in_features=10, out_features=128, bias=True)
  (lin_c): Linear(in_features=167, out_features=128, bias=True)
  (atom_convs): ModuleList(
    (0-2): 3 x NTNConv(128, 128, slices=4)
  )
  (lin_gate): Linear(in_features=384, out_features=128, bias=True)
  (feature_att): FeatureAttention(
    (mlp): Sequential(
      (0): Linear(in_features=128, out_features=128, bias=False)
      (1): ReLU(inplace=True)
      (2): Linear(in_features=128, out_features=128, bias=False)
    )
  )
  (cross_att): GATConv(128, 128, heads=4)
  (out): Linear(in_features=256, out_features=4, bias=True)
)
[2024-03-25 22:29:03] (train.py 231): INFO number of params: 511120
[2024-03-25 22:29:03] (train.py 265): INFO Start training
[2024-03-25 22:29:05] (train.py 285): INFO Epoch:0 clintox trn_loss:1.403 trn_auc:0.452 lr:0.00044
[2024-03-25 22:29:05] (train.py 287): INFO Epoch:0 clintox val_loss:1.028 val_auc:0.643 lr:0.00044
[2024-03-25 22:29:05] (train.py 289): INFO Epoch:0 clintox test_loss:1.028 test_auc:0.702 lr:0.00044
…
[2024-03-25 22:46:08] (cross_validate.py 75): INFO Overall test CT_TOX auc = 0.873  0.037
[2024-03-25 22:46:08] (cross_validate.py 168): INFO num params: 511,120
[2024-03-25 22:46:08] (cross_validate.py 169): INFO 0.8852385137989904  0.032212711802504776 auc
[2024-03-25 22:46:08] (cross_validate.py 140): INFO round_14
[2024-03-25 22:46:08] (cross_validate.py 148): INFO {'MODEL.DEPTH': 3, 'MODEL.DROPOUT': 0.4, 'MODEL.HID': 256, 'MODEL.R': 1, 'MODEL.SLICES': 1, 'TRAIN.OPTIMIZER.BASE_LR': 0.0003370218971473026, 'TRAIN.OPTIMIZER.WEIGHT_DECAY': 1e-06}
[2024-03-25 22:46:08] (cross_validate.py 50): INFO Fold 0
[2024-03-25 22:46:08] (train.py 223): INFO HiGNN(
  (combinedfc1): Linear(in_features=512, out_features=256, bias=True)
  (lin_a): Linear(in_features=46, out_features=256, bias=True)
  (lin_b): Linear(in_features=10, out_features=256, bias=True)
  (lin_c): Linear(in_features=167, out_features=256, bias=True)
  (atom_convs): ModuleList(
    (0-2): 3 x NTNConv(256, 256, slices=1)
  )
  (lin_gate): Linear(in_features=768, out_features=256, bias=True)
  (feature_att): FeatureAttention(
    (mlp): Sequential(
      (0): Linear(in_features=256, out_features=256, bias=False)
      (1): ReLU(inplace=True)
      (2): Linear(in_features=256, out_features=256, bias=False)
    )
  )
  (cross_att): GATConv(256, 256, heads=4)
  (out): Linear(in_features=512, out_features=4, bias=True)
)
[2024-03-25 22:46:08] (train.py 231): INFO number of params: 1375751
[2024-03-25 22:46:08] (train.py 265): INFO Start training
[2024-03-25 22:46:09] (train.py 285): INFO Epoch:0 clintox trn_loss:1.414 trn_auc:0.416 lr:0.00034
[2024-03-25 22:46:09] (train.py 287): INFO Epoch:0 clintox val_loss:1.030 val_auc:0.446 lr:0.00034
[2024-03-25 22:46:09] (train.py 289): INFO Epoch:0 clintox test_loss:1.035 test_auc:0.562 lr:0.00034
…
[2024-03-25 23:41:30] (cross_validate.py 75): INFO Overall test CT_TOX auc = 0.914  0.030
[2024-03-25 23:41:30] (cross_validate.py 168): INFO num params: 511,120
[2024-03-25 23:41:30] (cross_validate.py 169): INFO 0.9224747623955617  0.02792476824241199 auc
[2024-03-25 23:41:30] (cross_validate.py 140): INFO round_18
[2024-03-25 23:41:30] (cross_validate.py 148): INFO {'MODEL.DEPTH': 3, 'MODEL.DROPOUT': 0.1, 'MODEL.HID': 128, 'MODEL.R': 4, 'MODEL.SLICES': 2, 'TRAIN.OPTIMIZER.BASE_LR': 0.0008577428055362389, 'TRAIN.OPTIMIZER.WEIGHT_DECAY': 0.0001}
[2024-03-25 23:41:30] (cross_validate.py 50): INFO Fold 0
[2024-03-25 23:41:30] (train.py 223): INFO HiGNN(
  (combinedfc1): Linear(in_features=256, out_features=128, bias=True)
  (lin_a): Linear(in_features=46, out_features=128, bias=True)
  (lin_b): Linear(in_features=10, out_features=128, bias=True)
  (lin_c): Linear(in_features=167, out_features=128, bias=True)
  (atom_convs): ModuleList(
    (0-2): 3 x NTNConv(128, 128, slices=2)
  )
  (lin_gate): Linear(in_features=384, out_features=128, bias=True)
  (feature_att): FeatureAttention(
    (mlp): Sequential(
      (0): Linear(in_features=128, out_features=32, bias=False)
      (1): ReLU(inplace=True)
      (2): Linear(in_features=32, out_features=128, bias=False)
    )
  )
  (cross_att): GATConv(128, 128, heads=4)
  (out): Linear(in_features=256, out_features=4, bias=True)
)
[2024-03-25 23:41:30] (train.py 231): INFO number of params: 385930
[2024-03-25 23:41:30] (train.py 265): INFO Start training
[2024-03-25 23:41:31] (train.py 285): INFO Epoch:0 clintox trn_loss:1.389 trn_auc:0.536 lr:0.00086
[2024-03-25 23:41:31] (train.py 287): INFO Epoch:0 clintox val_loss:1.016 val_auc:0.740 lr:0.00086
[2024-03-25 23:41:31] (train.py 289): INFO Epoch:0 clintox test_loss:1.028 test_auc:0.639 lr:0.00086
…
