[2024-04-06 15:24:59] (cross_validate.py 291): INFO GPU mode...
[2024-04-06 15:24:59] (cross_validate.py 140): INFO round_0
[2024-04-06 15:24:59] (cross_validate.py 148): INFO {'MODEL.DEPTH': 2, 'MODEL.DROPOUT': 0.0, 'MODEL.HID': 256, 'MODEL.R': 2, 'MODEL.SLICES': 4, 'TRAIN.OPTIMIZER.BASE_LR': 0.002361541528034876, 'TRAIN.OPTIMIZER.WEIGHT_DECAY': 0.0001}
[2024-04-06 15:24:59] (cross_validate.py 50): INFO Fold 0
[2024-04-06 15:24:59] (train.py 606): INFO HiGNN(
  (combinedfc1): Linear(in_features=512, out_features=256, bias=True)
  (lin_a): Linear(in_features=46, out_features=256, bias=True)
  (lin_b): Linear(in_features=10, out_features=256, bias=True)
  (lin_c): Linear(in_features=167, out_features=256, bias=True)
  (atom_convs): ModuleList(
    (0-1): 2 x NTNConv(256, 256, slices=4)
  )
  (lin_gate): Linear(in_features=768, out_features=256, bias=True)
  (feature_att): FeatureAttention(
    (mlp): Sequential(
      (0): Linear(in_features=256, out_features=128, bias=False)
      (1): ReLU(inplace=True)
      (2): Linear(in_features=128, out_features=256, bias=False)
    )
  )
  (bidirectional_att): BiDirectionalAttention(
    (query_linear): Linear(in_features=256, out_features=256, bias=True)
    (key_linear): Linear(in_features=256, out_features=256, bias=True)
  )
  (cross_att): GATConv(256, 256, heads=4)
  (out): Linear(in_features=768, out_features=4, bias=True)
)
[2024-04-06 15:25:24] (train.py 614): INFO number of params: 1643276
[2024-04-06 15:25:24] (train.py 648): INFO Start training
[2024-04-06 15:25:27] (train.py 676): INFO Epoch:0 clintox trn_loss:1.808 trn_auc:0.423 lr:0.00236
[2024-04-06 15:25:27] (train.py 678): INFO Epoch:0 clintox val_loss:1.027 val_auc:0.497 lr:0.00236
[2024-04-06 15:25:27] (train.py 680): INFO Epoch:0 clintox test_loss:1.046 test_auc:0.360 lr:0.00236
…
[2024-04-06 15:57:25] (cross_validate.py 71): INFO Overall test auc = 0.905  0.045
[2024-04-06 15:57:25] (cross_validate.py 168): INFO num params: 1,641,738
[2024-04-06 15:57:25] (cross_validate.py 169): INFO 0.9046024790431515  0.04539901484612707 auc
[2024-04-06 15:57:25] (cross_validate.py 140): INFO round_2
[2024-04-06 15:57:25] (cross_validate.py 148): INFO {'MODEL.DEPTH': 2, 'MODEL.DROPOUT': 0.1, 'MODEL.HID': 128, 'MODEL.R': 1, 'MODEL.SLICES': 4, 'TRAIN.OPTIMIZER.BASE_LR': 0.001562701828505882, 'TRAIN.OPTIMIZER.WEIGHT_DECAY': 0.0001}
[2024-04-06 15:57:25] (cross_validate.py 50): INFO Fold 0
[2024-04-06 15:57:25] (train.py 606): INFO HiGNN(
  (combinedfc1): Linear(in_features=256, out_features=128, bias=True)
  (lin_a): Linear(in_features=46, out_features=128, bias=True)
  (lin_b): Linear(in_features=10, out_features=128, bias=True)
  (lin_c): Linear(in_features=167, out_features=128, bias=True)
  (atom_convs): ModuleList(
    (0-1): 2 x NTNConv(128, 128, slices=4)
  )
  (lin_gate): Linear(in_features=384, out_features=128, bias=True)
  (feature_att): FeatureAttention(
    (mlp): Sequential(
      (0): Linear(in_features=128, out_features=128, bias=False)
      (1): ReLU(inplace=True)
      (2): Linear(in_features=128, out_features=128, bias=False)
    )
  )
  (bidirectional_att): BiDirectionalAttention(
    (query_linear): Linear(in_features=128, out_features=128, bias=True)
    (key_linear): Linear(in_features=128, out_features=128, bias=True)
  )
  (cross_att): GATConv(128, 128, heads=4)
  (out): Linear(in_features=384, out_features=4, bias=True)
)
[2024-04-06 15:57:25] (train.py 614): INFO number of params: 444812
[2024-04-06 15:57:25] (train.py 648): INFO Start training
[2024-04-06 15:57:26] (train.py 676): INFO Epoch:0 clintox trn_loss:1.409 trn_auc:0.423 lr:0.00156
[2024-04-06 15:57:26] (train.py 678): INFO Epoch:0 clintox val_loss:1.033 val_auc:0.641 lr:0.00156
[2024-04-06 15:57:26] (train.py 680): INFO Epoch:0 clintox test_loss:1.042 test_auc:0.362 lr:0.00156
…
[2024-04-06 16:09:09] (cross_validate.py 71): INFO Overall test auc = 0.894  0.035
[2024-04-06 16:09:09] (cross_validate.py 168): INFO num params: 444,812
[2024-04-06 16:09:09] (cross_validate.py 169): INFO 0.894095492303053  0.03540197180700135 auc
[2024-04-06 16:09:09] (cross_validate.py 140): INFO round_3
[2024-04-06 16:09:09] (cross_validate.py 148): INFO {'MODEL.DEPTH': 4, 'MODEL.DROPOUT': 0.5, 'MODEL.HID': 64, 'MODEL.R': 2, 'MODEL.SLICES': 2, 'TRAIN.OPTIMIZER.BASE_LR': 0.0009834178284454749, 'TRAIN.OPTIMIZER.WEIGHT_DECAY': 0.0001}
[2024-04-06 16:09:09] (cross_validate.py 50): INFO Fold 0
[2024-04-06 16:09:09] (train.py 606): INFO HiGNN(
  (combinedfc1): Linear(in_features=128, out_features=64, bias=True)
  (lin_a): Linear(in_features=46, out_features=64, bias=True)
  (lin_b): Linear(in_features=10, out_features=64, bias=True)
  (lin_c): Linear(in_features=167, out_features=64, bias=True)
  (atom_convs): ModuleList(
    (0-3): 4 x NTNConv(64, 64, slices=2)
  )
  (lin_gate): Linear(in_features=192, out_features=64, bias=True)
  (feature_att): FeatureAttention(
    (mlp): Sequential(
      (0): Linear(in_features=64, out_features=32, bias=False)
      (1): ReLU(inplace=True)
      (2): Linear(in_features=32, out_features=64, bias=False)
    )
  )
  (bidirectional_att): BiDirectionalAttention(
    (query_linear): Linear(in_features=64, out_features=64, bias=True)
    (key_linear): Linear(in_features=64, out_features=64, bias=True)
  )
  (cross_att): GATConv(64, 64, heads=4)
  (out): Linear(in_features=192, out_features=4, bias=True)
)
[2024-04-06 16:09:09] (train.py 614): INFO number of params: 132300
[2024-04-06 16:09:09] (train.py 648): INFO Start training
[2024-04-06 16:09:10] (train.py 676): INFO Epoch:0 clintox trn_loss:1.386 trn_auc:0.490 lr:0.00098
[2024-04-06 16:09:10] (train.py 678): INFO Epoch:0 clintox val_loss:1.036 val_auc:0.537 lr:0.00098
[2024-04-06 16:09:10] (train.py 680): INFO Epoch:0 clintox test_loss:1.040 test_auc:0.458 lr:0.00098
…
[2024-04-06 16:27:06] (cross_validate.py 71): INFO Overall test auc = 0.892  0.033
[2024-04-06 16:27:06] (cross_validate.py 168): INFO num params: 132,300
[2024-04-06 16:27:06] (cross_validate.py 169): INFO 0.8916604181390244  0.0334578389653946 auc
[2024-04-06 16:27:06] (cross_validate.py 140): INFO round_4
[2024-04-06 16:27:06] (cross_validate.py 148): INFO {'MODEL.DEPTH': 2, 'MODEL.DROPOUT': 0.2, 'MODEL.HID': 64, 'MODEL.R': 4, 'MODEL.SLICES': 4, 'TRAIN.OPTIMIZER.BASE_LR': 0.002712030900464903, 'TRAIN.OPTIMIZER.WEIGHT_DECAY': 1e-05}
[2024-04-06 16:27:06] (cross_validate.py 50): INFO Fold 0
[2024-04-06 16:27:06] (train.py 606): INFO HiGNN(
  (combinedfc1): Linear(in_features=128, out_features=64, bias=True)
  (lin_a): Linear(in_features=46, out_features=64, bias=True)
  (lin_b): Linear(in_features=10, out_features=64, bias=True)
  (lin_c): Linear(in_features=167, out_features=64, bias=True)
  (atom_convs): ModuleList(
    (0-1): 2 x NTNConv(64, 64, slices=4)
  )
  (lin_gate): Linear(in_features=192, out_features=64, bias=True)
  (feature_att): FeatureAttention(
    (mlp): Sequential(
      (0): Linear(in_features=64, out_features=16, bias=False)
      (1): ReLU(inplace=True)
      (2): Linear(in_features=16, out_features=64, bias=False)
    )
  )
  (bidirectional_att): BiDirectionalAttention(
    (query_linear): Linear(in_features=64, out_features=64, bias=True)
    (key_linear): Linear(in_features=64, out_features=64, bias=True)
  )
  (cross_att): GATConv(64, 64, heads=4)
  (out): Linear(in_features=192, out_features=4, bias=True)
)
[2024-04-06 16:27:06] (train.py 614): INFO number of params: 113868
[2024-04-06 16:27:06] (train.py 648): INFO Start training
[2024-04-06 16:27:07] (train.py 676): INFO Epoch:0 clintox trn_loss:1.397 trn_auc:0.504 lr:0.00271
[2024-04-06 16:27:07] (train.py 678): INFO Epoch:0 clintox val_loss:1.031 val_auc:0.557 lr:0.00271
[2024-04-06 16:27:07] (train.py 680): INFO Epoch:0 clintox test_loss:1.055 test_auc:0.387 lr:0.00271
…
[2024-04-06 17:26:48] (cross_validate.py 71): INFO Overall test auc = 0.888  0.037
[2024-04-06 17:26:48] (cross_validate.py 168): INFO num params: 443,272
[2024-04-06 17:26:48] (cross_validate.py 169): INFO 0.8879425986215977  0.037153787029482625 auc
[2024-04-06 17:26:48] (cross_validate.py 140): INFO round_8
[2024-04-06 17:26:48] (cross_validate.py 148): INFO {'MODEL.DEPTH': 4, 'MODEL.DROPOUT': 0.4, 'MODEL.HID': 256, 'MODEL.R': 4, 'MODEL.SLICES': 1, 'TRAIN.OPTIMIZER.BASE_LR': 0.00024174528876743295, 'TRAIN.OPTIMIZER.WEIGHT_DECAY': 1e-06}
[2024-04-06 17:26:48] (cross_validate.py 50): INFO Fold 0
[2024-04-06 17:26:48] (train.py 606): INFO HiGNN(
  (combinedfc1): Linear(in_features=512, out_features=256, bias=True)
  (lin_a): Linear(in_features=46, out_features=256, bias=True)
  (lin_b): Linear(in_features=10, out_features=256, bias=True)
  (lin_c): Linear(in_features=167, out_features=256, bias=True)
  (atom_convs): ModuleList(
    (0-3): 4 x NTNConv(256, 256, slices=1)
  )
  (lin_gate): Linear(in_features=768, out_features=256, bias=True)
  (feature_att): FeatureAttention(
    (mlp): Sequential(
      (0): Linear(in_features=256, out_features=64, bias=False)
      (1): ReLU(inplace=True)
      (2): Linear(in_features=64, out_features=256, bias=False)
    )
  )
  (bidirectional_att): BiDirectionalAttention(
    (query_linear): Linear(in_features=256, out_features=256, bias=True)
    (key_linear): Linear(in_features=256, out_features=256, bias=True)
  )
  (cross_att): GATConv(256, 256, heads=4)
  (out): Linear(in_features=768, out_features=4, bias=True)
)
[2024-04-06 17:26:48] (train.py 614): INFO number of params: 1607432
[2024-04-06 17:26:48] (train.py 648): INFO Start training
[2024-04-06 17:26:49] (train.py 676): INFO Epoch:0 clintox trn_loss:1.391 trn_auc:0.463 lr:0.00024
[2024-04-06 17:26:49] (train.py 678): INFO Epoch:0 clintox val_loss:1.032 val_auc:0.534 lr:0.00024
[2024-04-06 17:26:49] (train.py 680): INFO Epoch:0 clintox test_loss:1.044 test_auc:0.350 lr:0.00024
…
[2024-04-06 17:48:20] (cross_validate.py 71): INFO Overall test auc = 0.863  0.043
[2024-04-06 17:48:20] (cross_validate.py 168): INFO num params: 1,607,432
[2024-04-06 17:48:20] (cross_validate.py 169): INFO 0.8630544195955021  0.04295985299169821 auc
[2024-04-06 17:48:20] (cross_validate.py 140): INFO round_9
[2024-04-06 17:48:20] (cross_validate.py 148): INFO {'MODEL.DEPTH': 4, 'MODEL.DROPOUT': 0.0, 'MODEL.HID': 256, 'MODEL.R': 1, 'MODEL.SLICES': 4, 'TRAIN.OPTIMIZER.BASE_LR': 0.0028764277807287355, 'TRAIN.OPTIMIZER.WEIGHT_DECAY': 0.0001}
[2024-04-06 17:48:20] (cross_validate.py 50): INFO Fold 0
[2024-04-06 17:48:20] (train.py 606): INFO HiGNN(
  (combinedfc1): Linear(in_features=512, out_features=256, bias=True)
  (lin_a): Linear(in_features=46, out_features=256, bias=True)
  (lin_b): Linear(in_features=10, out_features=256, bias=True)
  (lin_c): Linear(in_features=167, out_features=256, bias=True)
  (atom_convs): ModuleList(
    (0-3): 4 x NTNConv(256, 256, slices=4)
  )
  (lin_gate): Linear(in_features=768, out_features=256, bias=True)
  (feature_att): FeatureAttention(
    (mlp): Sequential(
      (0): Linear(in_features=256, out_features=256, bias=False)
      (1): ReLU(inplace=True)
      (2): Linear(in_features=256, out_features=256, bias=False)
    )
  )
  (bidirectional_att): BiDirectionalAttention(
    (query_linear): Linear(in_features=256, out_features=256, bias=True)
    (key_linear): Linear(in_features=256, out_features=256, bias=True)
  )
  (cross_att): GATConv(256, 256, heads=4)
  (out): Linear(in_features=768, out_features=4, bias=True)
)
[2024-04-06 17:48:20] (train.py 614): INFO number of params: 2501396
[2024-04-06 17:48:20] (train.py 648): INFO Start training
[2024-04-06 17:48:22] (train.py 676): INFO Epoch:0 clintox trn_loss:1.453 trn_auc:0.502 lr:0.00288
[2024-04-06 17:48:22] (train.py 678): INFO Epoch:0 clintox val_loss:1.034 val_auc:0.716 lr:0.00288
[2024-04-06 17:48:22] (train.py 680): INFO Epoch:0 clintox test_loss:1.038 test_auc:0.654 lr:0.00288
…
[2024-04-06 18:17:20] (cross_validate.py 71): INFO Overall test auc = 0.891  0.029
[2024-04-06 18:17:20] (cross_validate.py 168): INFO num params: 2,501,396
[2024-04-06 18:17:20] (cross_validate.py 169): INFO 0.8907872054106607  0.02860072139327762 auc
[2024-04-06 18:17:20] (cross_validate.py 140): INFO round_10
[2024-04-06 18:17:20] (cross_validate.py 148): INFO {'MODEL.DEPTH': 4, 'MODEL.DROPOUT': 0.1, 'MODEL.HID': 64, 'MODEL.R': 1, 'MODEL.SLICES': 4, 'TRAIN.OPTIMIZER.BASE_LR': 0.0026699809172303964, 'TRAIN.OPTIMIZER.WEIGHT_DECAY': 1e-05}
[2024-04-06 18:17:20] (cross_validate.py 50): INFO Fold 0
[2024-04-06 18:17:20] (train.py 606): INFO HiGNN(
  (combinedfc1): Linear(in_features=128, out_features=64, bias=True)
  (lin_a): Linear(in_features=46, out_features=64, bias=True)
  (lin_b): Linear(in_features=10, out_features=64, bias=True)
  (lin_c): Linear(in_features=167, out_features=64, bias=True)
  (atom_convs): ModuleList(
    (0-3): 4 x NTNConv(64, 64, slices=4)
  )
  (lin_gate): Linear(in_features=192, out_features=64, bias=True)
  (feature_att): FeatureAttention(
    (mlp): Sequential(
      (0): Linear(in_features=64, out_features=64, bias=False)
      (1): ReLU(inplace=True)
      (2): Linear(in_features=64, out_features=64, bias=False)
    )
  )
  (bidirectional_att): BiDirectionalAttention(
    (query_linear): Linear(in_features=64, out_features=64, bias=True)
    (key_linear): Linear(in_features=64, out_features=64, bias=True)
  )
  (cross_att): GATConv(64, 64, heads=4)
  (out): Linear(in_features=192, out_features=4, bias=True)
)
[2024-04-06 18:17:20] (train.py 614): INFO number of params: 170708
[2024-04-06 18:17:20] (train.py 648): INFO Start training
[2024-04-06 18:17:21] (train.py 676): INFO Epoch:0 clintox trn_loss:1.398 trn_auc:0.477 lr:0.00267
[2024-04-06 18:17:21] (train.py 678): INFO Epoch:0 clintox val_loss:1.033 val_auc:0.520 lr:0.00267
[2024-04-06 18:17:21] (train.py 680): INFO Epoch:0 clintox test_loss:1.043 test_auc:0.293 lr:0.00267
…
[2024-04-06 18:33:19] (cross_validate.py 71): INFO Overall test auc = 0.883  0.036
[2024-04-06 18:33:19] (cross_validate.py 168): INFO num params: 170,708
[2024-04-06 18:33:19] (cross_validate.py 169): INFO 0.8830616495821635  0.03562577027529851 auc
[2024-04-06 18:33:19] (cross_validate.py 140): INFO round_11
[2024-04-06 18:33:19] (cross_validate.py 148): INFO {'MODEL.DEPTH': 4, 'MODEL.DROPOUT': 0.2, 'MODEL.HID': 128, 'MODEL.R': 4, 'MODEL.SLICES': 2, 'TRAIN.OPTIMIZER.BASE_LR': 0.005118417126284873, 'TRAIN.OPTIMIZER.WEIGHT_DECAY': 0.0001}
[2024-04-06 18:33:19] (cross_validate.py 50): INFO Fold 0
[2024-04-06 18:33:20] (train.py 606): INFO HiGNN(
  (combinedfc1): Linear(in_features=256, out_features=128, bias=True)
  (lin_a): Linear(in_features=46, out_features=128, bias=True)
  (lin_b): Linear(in_features=10, out_features=128, bias=True)
  (lin_c): Linear(in_features=167, out_features=128, bias=True)
  (atom_convs): ModuleList(
    (0-3): 4 x NTNConv(128, 128, slices=2)
  )
  (lin_gate): Linear(in_features=384, out_features=128, bias=True)
  (feature_att): FeatureAttention(
    (mlp): Sequential(
      (0): Linear(in_features=128, out_features=32, bias=False)
      (1): ReLU(inplace=True)
      (2): Linear(in_features=32, out_features=128, bias=False)
    )
  )
  (bidirectional_att): BiDirectionalAttention(
    (query_linear): Linear(in_features=128, out_features=128, bias=True)
    (key_linear): Linear(in_features=128, out_features=128, bias=True)
  )
  (cross_att): GATConv(128, 128, heads=4)
  (out): Linear(in_features=384, out_features=4, bias=True)
)
[2024-04-06 18:33:20] (train.py 614): INFO number of params: 485772
[2024-04-06 18:33:20] (train.py 648): INFO Start training
[2024-04-06 18:33:21] (train.py 676): INFO Epoch:0 clintox trn_loss:1.426 trn_auc:0.494 lr:0.00512
[2024-04-06 18:33:21] (train.py 678): INFO Epoch:0 clintox val_loss:1.033 val_auc:0.691 lr:0.00512
[2024-04-06 18:33:21] (train.py 680): INFO Epoch:0 clintox test_loss:1.038 test_auc:0.564 lr:0.00512
…
